color_data/forward_ti_train_syn_300_tio2_ti2o3_xyy.pth (torch, 71297 bytes, 12 tensors)

fc1.weight f4 [64, 2]
0	0x3df5052e	0.119638786
1	0x3dc81899	0.09770317
2	0xbfefa442	-1.8722003
3	0xc02cc2b7	-2.6993845
4	0x3d05b3ab	0.032642048
5	0xbe7da0ae	-0.24768326
6	0xbe7d74ca	-0.24751583
7	0xbe88fbe2	-0.2675467
8	0xbf9f0c2c	-1.242559
9	0xbdd054c2	-0.10172416
10	0xbe481dba	-0.1954259
11	0xbda26b1c	-0.07930586
12	0xbd6ea698	-0.058264345
13	0xbd1969e0	-0.037454486
14	0xbeccde76	-0.40013474
15	0xbc9c04b8	-0.019045219
16	0xbd478cb2	-0.048718162
17	0xbd57c4f7	-0.052678075
18	0xbe24240a	-0.16029373
19	0xbbb21efd	-0.005435823
20	0xbf1ebad8	-0.6200385
21	0xbd97130a	-0.07376678
22	0x3f37f1a9	0.7185312
23	0x3f6c65fc	0.92343116
24	0x3e8e096c	0.27741563
25	0xbf82c43f	-1.021614
26	0x3d2405bb	0.040044528
27	0xc0159b87	-2.3376176
28	0xbd8ad4af	-0.067788474
29	0x3c65d63e	0.01402813
30	0xbde70219	-0.11279697
31	0xbe2b0c7d	-0.16703983
32	0x3e2d7d45	0.16942318
33	0xbd38fa1a	-0.04516039
34	0xbdcf3c0a	-0.101188734
35	0x3c197f4d	0.00936873
36	0xbe07fa29	-0.13279022
37	0x3d821053	0.0635077
38	0xbe861a3f	-0.261919
39	0xbe6bc759	-0.23025264
40	0x3d87c404	0.06629184
41	0xbc170fce	-0.009220077
42	0x3dc10db0	0.09426439
43	0xbe05d844	-0.1307078
44	0x3c94edd3	0.01817981
45	0xbd19276e	-0.03739112
46	0x3e4a4b95	0.19755395
47	0x3e8b661a	0.27226335
48	0x3d93bc1e	0.07213615
49	0xbdd41945	-0.10356382
50	0x3f44c1dd	0.7685831
51	0x3f76f02a	0.9646021
52	0x3f8190e7	1.0122346
53	0xbfdef6c8	-1.7419062
54	0xc02f9a4a	-2.743792
55	0x3f251ffa	0.6450192
56	0xbea40059	-0.32031515
57	0x3f85e2b9	1.0459815
58	0x3efa5d05	0.48899093
59	0xbf9aa843	-1.2082599
60	0xbe531df7	-0.206169
61	0x3b433ad9	0.0029789715
62	0xbe544357	-0.20728813
63	0x3e80a426	0.25125235
64	0xbe58421d	-0.2111897
65	0xbe8da6fe	-0.27666467
66	0xbe0b9c08	-0.1363374
67	0xbda99d24	-0.08281925
68	0x3cab8bbe	0.020940658
69	0xbea3c8f3	-0.3198925
70	0xbf5943e3	-0.8486921
71	0x3f8d4568	1.1036806
72	0xbdd26f43	-0.10275128
73	0xbd89624c	-0.06708202
74	0xbe785602	-0.2425156
75	0x3d092cd8	0.033490032
76	0xbe9c7dd9	-0.30564764
77	0x3f68a3a5	0.908747
78	0x3e0bcf9a	0.13653412
79	0x3e561240	0.209054
80	0xbfbf2264	-1.493237
81	0xc0078b80	-2.1178894
82	0x3f2588a0	0.646616
83	0x3f56bfc8	0.83886385
84	0x3cbb0541	0.022829654
85	0x3e8215b1	0.25407174
86	0xbe8288b8	-0.25494933
87	0xbe9b6fc7	-0.30358717
88	0x3d9d14b3	0.07669964
89	0xbb9515a0	-0.004549697
90	0x3d816d33	0.06319656
91	0x3c81d13f	0.015846847
92	0xbf05937f	-0.52178186
93	0x3f35cd7f	0.7101669
94	0xbf176419	-0.5913711
95	0xbf411979	-0.75429493
96	0xbe6896a3	-0.22713713
97	0xbdf897e2	-0.12138344
98	0xbf297507	-0.66194195
99	0xbf57714c	-0.8415725
100	0xbf0d9e0e	-0.553193
101	0xbf6f3f91	-0.9345637
102	0xbdb3f276	-0.0878648
103	0x3e0de38e	0.13856336
104	0x3e1d7598	0.1537689
105	0xbea4be2e	-0.32176346
106	0x3c47770a	0.012174377
107	0xbe901cdb	-0.28147015
108	0x3c958a52	0.018254433
109	0x3d100258	0.035158485
110	0x3f90594d	1.1277252
111	0x3f90038e	1.1251085
112	0x3e5ab858	0.21359384
113	0x3d04905d	0.032364238
114	0xbe1938e4	-0.14963108
115	0xbe8b3091	-0.2718549
116	0xbe62b584	-0.22139555
117	0xbdab2709	-0.08357055
118	0xbf3d2590	-0.7388544
119	0xbf67b638	-0.9051242
120	0xbe2b20c6	-0.16711721
121	0xbe26a7d2	-0.16274956
122	0xbe9f8deb	-0.31162962
123	0xbe14e7a0	-0.14541483
124	0x3bd0743c	0.0063615125
125	0xbe7c6acf	-0.24650119
126	0xbd30ae79	-0.04313514
127	0x3c8da3b5	0.017289976

fc1.bias f4 [64]
0	0xbdf52172	-0.1196927
1	0x3e8d6259	0.27614096
2	0xbd44244c	-0.047886178
3	0xbe5f7790	-0.21822953
4	0x3eb717eb	0.35760435
5	0x3977d509	0.00023635117
6	0xb9b91e9f	-0.00035308764
7	0xbb4fb984	-0.003169627
8	0xbb008e38	-0.001961602
9	0xb76b6604	-1.4030844e-05
10	0xb87e0661	-6.056426e-05
11	0xbf2cf3a5	-0.6755927
12	0x3e5ebb77	0.217512
13	0x3eaa1dae	0.3322577
14	0xbc857f4d	-0.016296053
15	0xbb2983d7	-0.0025865936
16	0xbe843302	-0.25820166
17	0xbc1fa296	-0.009743353
18	0xbde9f195	-0.11423031
19	0xbbb12e72	-0.005407148
20	0xbe9c2690	-0.3049817
21	0xbe524f79	-0.20538129
22	0xbd352645	-0.04422595
23	0xbe9636b8	-0.29338622
24	0xbe15bcfc	-0.14622873
25	0xbed1360e	-0.40861553
26	0xbf236398	-0.63823843
27	0xbe9b9252	-0.3038507
28	0xbe8ff7f6	-0.28118867
29	0x3dbe66f7	0.09296983
30	0xbbd965d2	-0.0066344524
31	0xbe809eba	-0.251211
32	0xbe630ef8	-0.22173679
33	0xb9c63095	-0.000378017
34	0xbe78540c	-0.24250811
35	0xbeaca99b	-0.3372315
36	0x38f579de	0.0001170521
37	0xbe16ca2f	-0.14725564
38	0xbd5476ee	-0.051871233
39	0xbe85fdb7	-0.26170132
40	0x3f000fce	0.50024116
41	0xbf16103f	-0.5861854
42	0xbe82185d	-0.25409213
43	0xbe92aeb2	-0.28648907
44	0xbda3dbcb	-0.080009066
45	0xbd818694	-0.06324497
46	0x3a59bc6b	0.00083059695
47	0x3f0357cd	0.5130585
48	0x37928209	1.7465109e-05
49	0x3f17bfca	0.5927702
50	0x3eb69415	0.35659853
51	0xbe7d8e34	-0.24761277
52	0xbe71ace4	-0.23601109
53	0xbe70146c	-0.2344529
54	0xbd145b38	-0.036219805
55	0xbc25a6d0	-0.010110572
56	0xbe6f7dae	-0.23387787
57	0xbd961374	-0.07327929
58	0xbdec7883	-0.11546423
59	0x3ef2fa40	0.4745655
60	0x39f0a0e4	0.0004589624
61	0xbde53f73	-0.111937426
62	0xbc3b64fd	-0.011437652
63	0xbc8fbb3b	-0.017545333

fc2.weight f4 [64, 64]
0	0x3e463d83	0.19359402
1	0xbda0b9bd	-0.07847927
2	0x3d3b1859	0.045677517
3	0x3d287cd7	0.04113468
4	0x3e1e0653	0.154321
5	0x3cb2dc5e	0.021833595
6	0x3cf09651	0.029368551
7	0x3d938350	0.0720278
8	0x3d326a2a	0.043558277
9	0xbc565d4b	-0.013083766
10	0x3cc027dc	0.023456506
11	0x3fd224c5	1.6417471
12	0xbb0aa7a5	-0.0021157053
13	0xbc7d3e34	-0.015456725
14	0x3bbdff10	0.005798228
15	0xbbdfe77b	-0.0068330145
16	0xbd469341	-0.048480276
17	0x3d31309d	0.043259252
18	0xbcc717ac	-0.02430328
19	0xbcd6c92b	-0.026218971
20	0xbd3f0f12	-0.04664523
21	0xbd0bf28d	-0.03416686
22	0xbd48c6e5	-0.049017806
23	0xbd21e8f7	-0.039528813
24	0xbcb6b3db	-0.022302559
25	0xbe77b387	-0.24189578
26	0xbf339217	-0.7014479
27	0x3eaee60a	0.3415988
28	0xbf081e14	-0.53170896
29	0x3ecfdf59	0.40600088
30	0xbc961f41	-0.01832545
31	0xbaa98e76	-0.0012936133
32	0x3d50f1db	0.0510119
33	0x3c0737ff	0.008253097
34	0x3b823c04	0.0039744396
35	0xbf27b2d4	-0.65507245
36	0x3c591cfe	0.013251541
37	0x3d5250a4	0.051346436
38	0x3f2073c8	0.6267667
39	0xbc87b29e	-0.016564663
40	0xbf8b3074	-1.0874162
41	0x401a084b	2.4067562
42	0xbc9d2cf4	-0.019186474
43	0xbbefb113	-0.00731481
44	0x3dafb432	0.085792914
45	0x3d5883e2	0.05286015
46	0x3f1b7dae	0.60738647
47	0xbd3b654a	-0.045750894
48	0xbcddeb1f	-0.027089654
49	0xbddf6bbd	-0.10909221
50	0xbeb7424c	-0.35792768
51	0xbd461ca9	-0.048367176
52	0xbb848b63	-0.0040449365
53	0x3c63be78	0.013900392
54	0x3d8e2762	0.069411054
55	0x3f6c9518	0.92415
56	0x3b05ac1d	0.0020396777
57	0xbd504f94	-0.05085714
58	0x3cdf1142	0.027229909
59	0xbef799d3	-0.48359546
60	0xbc651d4b	-0.013984035
61	0x3d54f490	0.051991045
62	0xbbd6b24e	-0.0065520173
63	0x3d698c51	0.05701858
64	0xbce0ebc7	-0.027456177
65	0x3cacf3a5	0.021112273
66	0xbd3a5839	-0.045494292
67	0x3c7d5f9c	0.01546469
68	0x3c85e79f	0.016345797
69	0xbd8a68be	-0.06758259
70	0xbd048c8b	-0.032360595
71	0x3d471fa5	0.048614163
72	0x3c009d1e	0.00784996
73	0xbd5aada4	-0.053388253
74	0xbd19ef5a	-0.03758178
75	0x3bfa1b76	0.007632668
76	0xbba32c89	-0.0049796742
77	0xbc1f2d2c	-0.00971536
78	0xbd46809b	-0.04846249
79	0x3cc3e5bf	0.023913262
80	0x3ce9df50	0.028548867
81	0xbd48774c	-0.048941895
82	0xbce55818	-0.027996108
83	0x3ce337c0	0.027736545
84	0x3cebab8f	0.028768329
85	0x39822bf3	0.00024828277
86	0x3c7a2ef6	0.015269985
87	0x3c2fe5a1	0.0107359
88	0xbd50f528	-0.05101505
89	0xbd5460e9	-0.051850233
90	0x3cf40fe3	0.029792732
91	0x3cf28c5d	0.029607946
92	0x3d059488	0.032612354
93	0xbd8e9b56	-0.06963222
94	0xbd0a05f0	-0.03369707
95	0xbcfd0395	-0.030885497
96	0x3d0e11f1	0.03468508
97	0xbd782468	-0.060581595
98	0xbd2f87dd	-0.04285418
99	0xbc652348	-0.0139854625
100	0xbcd08b5c	-0.025457077
101	0xbd3697a5	-0.044578213
102	0xbcec7ef6	-0.028869133
103	0x3d5dbfad	0.054137874
104	0xbd40dd56	-0.047086082
105	0xbd680952	-0.056649514
106	0xbcbede54	-0.023299374
107	0xbd5ebdb6	-0.05438014
108	0xbcbdb671	-0.023158284
109	0xbcc80ecf	-0.024421124
110	0x3d677b01	0.05651379
111	0xbd526541	-0.051366094
112	0x3c297697	0.010343215
113	0x3b7f983e	0.0039000656
114	0x3ca22b43	0.01979602
115	0xbc89b605	-0.016810426
116	0x3c6633b3	0.014050412
117	0x3d3df888	0.046379596
118	0xbd1a988c	-0.037743136
119	0xbbe8f60b	-0.0071094087
120	0xbd05e521	-0.032689217
121	0x3ca9b604	0.020716675
122	0x3c716d58	0.014735542
123	0xbd2984ec	-0.04138653
124	0xbb03402f	-0.002002727
125	0xbcab5c13	-0.020917928
126	0xbb8356f9	-0.0040081707
127	0x3c7b3353	0.015332061
128	0xbda61788	-0.08109957
129	0x3ce4bd8b	0.027922412
130	0xbd03bfbe	-0.03216528
131	0x3d251d88	0.040311366
132	0xbe9cc3da	-0.30618173
133	0xbd4b6fa3	-0.049667012
134	0x3ce2dedd	0.02769416
135	0xbe952240	-0.29127693
136	0xbaeb8594	-0.0017968887
137	0x3cecda53	0.028912699
138	0xbeb64865	-0.35602108
139	0xbf4e889c	-0.806772
140	0xbdc2b117	-0.095064335
141	0x3dfe505f	0.12417673
142	0x3d03608a	0.03207449
143	0xbdc6ae55	-0.0970122
144	0xbd2d775c	-0.042350158
145	0x3c4fa44d	0.01267345
146	0x3b6d7e5e	0.003623865
147	0xbb5b66a6	-0.0033477931
148	0x3cbabbae	0.02279457
149	0x3c1feb1a	0.009760642
150	0x3cfe881d	0.031070763
151	0x3d063844	0.032768503
152	0x3bfc543d	0.0077004717
153	0x3ea1250b	0.31473574
154	0xbf092e96	-0.5358671
155	0xbd7e57f7	-0.06209561
156	0xbe1f98c4	-0.15585619
157	0xbe1ed336	-0.15510258
158	0xbd477ab0	-0.04870099
159	0xbd46d3d6	-0.048541866
160	0xbd160d6f	-0.036633905
161	0x3ccf1fe1	0.025283756
162	0x3c4b2b3f	0.012400447
163	0x3defaf47	0.117033534
164	0x3cce1f5d	0.02516144
165	0xbcec4453	-0.028841173
166	0x3db3b7b8	0.08775276
167	0x3ca71cea	0.02039953
168	0xbf26a6db	-0.6509835
169	0xbea1756a	-0.31534892
170	0x3d25aa12	0.040445395
171	0x3d29f68f	0.041494902
172	0xbd2bd5c7	-0.04195192
173	0xbcaa6aa6	-0.020802807
174	0x3ca01271	0.019540044
175	0xbd95321a	-0.07284947
176	0xbd83ca5e	-0.06435083
177	0xbda876b4	-0.08225766
178	0x3cdf35ab	0.02724727
179	0xbca1f419	-0.019769715
180	0xbcacf274	-0.021111704
181	0x3d64ab44	0.055827394
182	0x3cf635ef	0.030055014
183	0xbe2bc776	-0.16775307
184	0x3d34148a	0.0439649
185	0xbd2644c7	-0.040592935
186	0xbd4e0cc1	-0.05030513
187	0x3e897c8e	0.2685284
188	0xbd225e95	-0.03964098
189	0x3cdce2a3	0.026963538
190	0xbce68ad2	-0.028142367
191	0x3d6261d8	0.055269092
192	0xbd1ac9f0	-0.03779024
193	0xbd965706	-0.07340817
194	0xbbce1fb3	-0.0062904
195	0xbca8d7f2	-0.020610783
196	0x3ad86b1f	0.0016511417
197	0xbd8a8ba0	-0.067649126
198	0xbdbf051c	-0.093271464
199	0x3d2e5341	0.042559866
200	0xbd4373d3	-0.04771788
201	0xbd2dde4e	-0.042448334
202	0x3cf654c9	0.030069726
203	0x3bd667ba	0.006543127
204	0xbd2b853c	-0.04187511
205	0xbde61ffd	-0.1123657
206	0xbc9fc699	-0.019503878
207	0xbdedaa90	-0.11604798
208	0x3d2401d8	0.04004082
209	0xbdb677e1	-0.08909584
210	0xbb2a345f	-0.0025971157
211	0xbd820c19	-0.06349964
212	0xbd4b37c9	-0.049613748
213	0xbc11222f	-0.008858248
214	0xbceaf0d1	-0.028679283
215	0x3d57c320	0.05267632
216	0x3d177ad2	0.036982365
217	0xbddef76f	-0.10887038
218	0xbd491ff3	-0.049102735
219	0xbd19a3b9	-0.037509654
220	0xbc44ba41	-0.012007297
221	0xbd90ff13	-0.070799015
222	0xbcf266c9	-0.029590027
223	0xbc5ac5d6	-0.013352832
224	0xbc3466ad	-0.011010808
225	0xbddc6396	-0.10761182
226	0xbd31c45c	-0.043400154
227	0x3d146a47	0.036234166
228	0xbd341ddd	-0.043973792
229	0x3cb4f653	0.022090113
230	0xbba59acc	-0.0050538536
231	0xbd35750e	-0.044301085
232	0xba9fc968	-0.0012190761
233	0xbdce6db6	-0.100795195
234	0xbcd7d8ef	-0.02634856
235	0x3c863fa2	0.016387764
236	0xbd419f8e	-0.047271304
237	0xbd3b2314	-0.04568775
238	0xbd2ab574	-0.041676953
239	0xbd172553	-0.03690083
240	0xbd764405	-0.060123462
241	0xbdcabab2	-0.098988906
242	0x398bf2c4	0.0002669302
243	0x3c2574d7	0.010098658
244	0xbc738325	-0.01486281
245	0xbb2b2588	-0.00261149
246	0xbe08fc99	-0.13377608
247	0xbd1a1c44	-0.037624612
248	0x396895f7	0.0002218111
249	0xbc73cf03	-0.014880898
250	0xba1c44d0	-0.00059611816
251	0xbb3d657c	-0.00288996
252	0xbdd59f3a	-0.10430761
253	0x3c13edad	0.009028834
254	0xbcd062ce	-0.025437739
255	0xbe0515bc	-0.12996572

fc2.bias f4 [64]
0	0x3e7686f9	0.24074925
1	0xbd68ae69	-0.056806955
2	0xbdda8e3f	-0.106716625
3	0xbdbff602	-0.09373094
4	0x3e0e2911	0.13882853
5	0x3e88cfb8	0.26720977
6	0x3beb6662	0.007183836
7	0xbe04c8c5	-0.12967212
8	0xbd897648	-0.067120135
9	0xbd846d01	-0.06466103
10	0xbdea1329	-0.11429436
11	0x3b17972e	0.0023130882
12	0xbd0877bd	-0.033317316
13	0x3ecc773f	0.39934728
14	0xbe5a6071	-0.21325852
15	0xbdb9677c	-0.09052941
16	0xbd483229	-0.04887596
17	0x3df0a648	0.11750466
18	0xbd67d355	-0.056598026
19	0x3c8610f0	0.016365498
20	0xbd8a5a75	-0.067555346
21	0xbb58ae1e	-0.0033062766
22	0xbd01d42d	-0.031696487
23	0xbcdb686e	-0.026783194
24	0xbf39da6a	-0.725989
25	0xbd43c3df	-0.04779422
26	0xbd39666c	-0.045263693
27	0xbd945757	-0.07243221
28	0x3cb5da1c	0.02219873
29	0xbb194fec	-0.0023393584
30	0x3d9becd6	0.07613532
31	0xbac1f3e1	-0.0014797413
32	0x3b1e94af	0.002419751
33	0xbd62de7b	-0.055387955
34	0xbd651297	-0.05592593
35	0xbd2efbb1	-0.0427205
36	0xbd99b755	-0.07505671
37	0xbd984892	-0.07435717
38	0xbd20ac20	-0.03922665
39	0xbd539d3e	-0.05166363
40	0xbd065f27	-0.032805588
41	0xbeb49489	-0.35269573
42	0xbd8756ac	-0.06608328
43	0x3dcdf860	0.100571394
44	0xbe85bdc6	-0.26121348
45	0xbd33e844	-0.043922678
46	0xbec005b7	-0.3750436
47	0xbd09eb47	-0.033671644
48	0xbdab1abf	-0.08354711
49	0x3de390d4	0.11111608
50	0xbdeb84fd	-0.11499975
51	0xbf09fcc8	-0.5390134
52	0x3d8fbe54	0.07018724
53	0xbd32e1e2	-0.04367245
54	0xbd741e0e	-0.059598975
55	0x3b9b4f73	0.0047396957
56	0xbd991515	-0.07474724
57	0xbcfe8133	-0.031067466
58	0x3e26503e	0.16241547
59	0x3cdd3cbe	0.027006503
60	0xbcc44517	-0.023958726
61	0xbdcd21fe	-0.10016249
62	0xbd953064	-0.072846204
63	0x3c42ff98	0.011901759

fc3.weight f4 [64, 64]
0	0xbd9a5b8f	-0.07536995
1	0x3d103eed	0.03521626
2	0xbd2e1c96	-0.04250773
3	0xbd75524e	-0.059892945
4	0xbd237f1b	-0.03991614
5	0xbd4764ba	-0.048680045
6	0xbc5d95f8	-0.013524525
7	0x3d2ad64d	0.04170828
8	0xbe02bfed	-0.12768526
9	0xb98c660e	-0.00026778918
10	0xbb530d0b	-0.003220382
11	0x3c4ec143	0.012619319
12	0xbd074d70	-0.033032835
13	0xbbcc3478	-0.0062318407
14	0xbcd659d4	-0.02616588
15	0xbc538c1d	-0.012911824
16	0x3d333956	0.04375585
17	0xbd1a7b5d	-0.037715305
18	0x3a861285	0.0010228908
19	0xbd27b489	-0.040943656
20	0x3d616552	0.055028267
21	0x3c61f649	0.013791629
22	0x3cb39f71	0.021926614
23	0x3d20145c	0.039081916
24	0xbd186f52	-0.03721554
25	0x3d06489a	0.032784082
26	0x3ce5a12d	0.028030956
27	0x3c8da5e9	0.017291026
28	0x3c71ca48	0.0147577
29	0x3c9f067c	0.019412272
30	0xbe1802cd	-0.14844818
31	0xbd325813	-0.043541025
32	0x3d19021d	0.03735553
33	0xbca65d98	-0.0203083
34	0xbc9594ad	-0.01825937
35	0xbcf83314	-0.030297793
36	0x3d46253d	0.048375357
37	0x3cbf129d	0.023324305
38	0x3af3bd0b	0.0018595768
39	0x3c30a19d	0.010780719
40	0x3a994c36	0.0011695686
41	0x3d098960	0.033578277
42	0xbd2f6b04	-0.042826667
43	0xbcd82edc	-0.026389532
44	0xbd8b0c9b	-0.06789514
45	0x3cc80d3e	0.024420377
46	0xbc4a5d06	-0.01235128
47	0xbd211759	-0.039328907
48	0xbc797b90	-0.0152272135
49	0xbc5bff13	-0.013427514
50	0xbdcca933	-0.0999321
51	0xbd9438f3	-0.07237425
52	0x3c23a63b	0.009988363
53	0xbc8adc9d	-0.0169509
54	0xbad65661	-0.0016352647
55	0xb950e6ed	-0.00019922452
56	0x3c2f59d0	0.010702565
57	0x3d19781c	0.03746806
58	0xbdb268b6	-0.08711378
59	0x3cb1eda4	0.021719761
60	0xbd152e8f	-0.036421355
61	0x3d474b8b	0.048656028
62	0xbd17f3c8	-0.037097722
63	0xbd457ce9	-0.048214827
64	0xbd920a62	-0.071308866
65	0xbd368c60	-0.044567466
66	0xbd479b5b	-0.048732143
67	0xbc5e9f9f	-0.013587861
68	0xbd52d260	-0.05147016
69	0xbde02ff5	-0.10946647
70	0x3b78edeb	0.0037983607
71	0xbc502340	-0.012703717
72	0xbdfdd2df	-0.12393736
73	0x3be5089d	0.006989552
74	0xbc584eec	-0.01320241
75	0xbcd19270	-0.025582522
76	0x3c0d4116	0.008621475
77	0xbd774cae	-0.06037586
78	0xbe0c3d87	-0.13695346
79	0x3bbe8cdf	0.005815133
80	0x3d202e36	0.03910657
81	0xbd646cd5	-0.055767853
82	0xbd0c8590	-0.034307063
83	0x3d0d0be1	0.034435157
84	0xbd1a85c7	-0.037725236
85	0x3cf4f9bc	0.029904239
86	0xbd5c17f7	-0.053733792
87	0x3cf9628f	0.030442504
88	0xbd884baa	-0.06655057
89	0xbd880681	-0.066418655
90	0x3cc0118d	0.023445869
91	0x3d0dfec2	0.034666784
92	0x3ce4a072	0.027908538
93	0xbb3db260	-0.002894543
94	0xbe2470a1	-0.1605859
95	0xbd03609e	-0.032074563
96	0xbcbf10cc	-0.023323439
97	0x3cb4d3cf	0.022073654
98	0xbc809cbc	-0.015699737
99	0xbc68fba1	-0.014220149
100	0xbcbfdffa	-0.02342223
101	0xbd927374	-0.07150927
102	0xbcf588de	-0.02997249
103	0x3d153d98	0.036435694
104	0x3cbe6cf4	0.023245312
105	0xbc1a9f5f	-0.009437411
106	0x3d54077e	0.051764958
107	0x3bc6aa62	0.0060627917
108	0xbd88d336	-0.0668091
109	0xbcb0c04d	-0.021576071
110	0xbd1e20c7	-0.038605478
111	0x3b60bec4	0.0034293393
112	0x3d16292c	0.03666036
113	0x3cd0a570	0.025469512
114	0xbcb797b7	-0.02241121
115	0xbddc5a0f	-0.10759365
116	0x3c5e1d2e	0.013556762
117	0xbcb59b8f	-0.022168903
118	0x3d00dba3	0.031459462
119	0xbd3e4c43	-0.046459448
120	0xbcb86528	-0.022509173
121	0xbd52b92f	-0.051446136
122	0xbc803f53	-0.015655195
123	0xbd793598	-0.060842127
124	0x3c7228d1	0.014780239
125	0xbb56f9dd	-0.0032802739
126	0xbb5c224c	-0.0033589778
127	0xbd862985	-0.06550888
128	0xbd23d13a	-0.039994456
129	0xbbc1ba76	-0.0059121205
130	0x3d13af1c	0.03605567
131	0x3ad7eb27	0.0016473279
132	0xbce18e4c	-0.027533673
133	0xbdfe5c29	-0.12419922
134	0xbc216026	-0.009849584
135	0xbc5913f8	-0.01324939
136	0xbe003391	-0.12519671
137	0x3c6e7e69	0.014556506
138	0xbd03d50a	-0.03218559
139	0xbcfd3e1a	-0.030913401
140	0x3bf1c568	0.007378269
141	0xbd8dc022	-0.06921412
142	0xbd40ee40	-0.047102213
143	0x3d181f77	0.037139382
144	0x3bff185f	0.0077848877
145	0x3c3bf8ae	0.011472864
146	0x3b8cb1be	0.0042936495
147	0x3d637cb6	0.055538855
148	0x3d3066f7	0.043066945
149	0x3d0877a0	0.03331721
150	0xbb563ae4	-0.003268891
151	0xbc56d3b6	-0.013111999
152	0xbdedd804	-0.11613467
153	0x3d4b9a6e	0.049707823
154	0xbc715be8	-0.014731385
155	0xbc193982	-0.00935209
156	0xbd02d8ef	-0.031945165
157	0x3cecaa52	0.028889809
158	0xbd236659	-0.03989253
159	0xbc7db1d1	-0.015484289
160	0x3c219889	0.009863027
161	0xbc834b80	-0.016027212
162	0x3c6dacfe	0.014506577
163	0xbd35c130	-0.04437369
164	0xbcfb55e3	-0.030680602
165	0xbccedb04	-0.02525092
166	0xbd4f880f	-0.050666865
167	0x3caa6b72	0.020803187
168	0xbd48cf62	-0.0490259
169	0xbdc455ea	-0.09586699
170	0xbcf02943	-0.02931655
171	0xbd0d9812	-0.034568854
172	0xbdc7129d	-0.09720347
173	0xbd08441c	-0.03326808
174	0xbcc6a18b	-0.024246952
175	0x3cbfc13d	0.023407573
176	0xbd5be58e	-0.053685717
177	0xbda3916c	-0.079867214
178	0xbdefd2f8	-0.11710161
179	0xbe10f630	-0.14156413
180	0x3d6eb3e1	0.058277015
181	0x3bdfd306	0.006830576
182	0xbc9b908a	-0.01898982
183	0xbb068ff0	-0.002053257
184	0xbd533de1	-0.051572684
185	0x3cdf2feb	0.027244529
186	0xbdaf5d7a	-0.08562751
187	0x3a814721	0.0009863117
188	0xba813556	-0.0009857814
189	0xbcf75ef1	-0.030196639
190	0x3d25bb8c	0.04046206
191	0x3c9b8806	0.01898576
192	0xbd9ae481	-0.07563115
193	0xbd2ae10a	-0.04171852
194	0xbd153916	-0.036431395
195	0xbd1cc29e	-0.03827154
196	0xba9683fe	-0.0011483429
197	0xbd82fbaf	-0.06395661
198	0x3d4573fe	0.048206322
199	0x3cdc51c5	0.02689446
200	0xbd288740	-0.04114461
201	0x3c41910f	0.01181437
202	0xbd154c4f	-0.036449727
203	0xbd4e9f28	-0.050444752
204	0x3ca6a71d	0.020343358
205	0xbd268174	-0.0406508
206	0x3cc299b8	0.02375494
207	0x3cabac40	0.020956159
208	0x3d40adb6	0.047040664
209	0xbd29f8a4	-0.041496888
210	0x39ca2be9	0.00038561158
211	0x3d637d85	0.055539627
212	0xbc83efe9	-0.016105609
213	0x3a8316de	0.0010001322
214	0x3cf6f87a	0.03014778
215	0xbc86ec4a	-0.016470093
216	0xbd0306d3	-0.03198893
217	0x3d38e22c	0.04513757
218	0xbcf2b1a0	-0.029625714
219	0x3c2970db	0.010341848
220	0xbd1bd604	-0.038045898
221	0xbd2eaab4	-0.042643264
222	0xbd7f50f3	-0.06233306
223	0x3abef290	0.0014568139
224	0x3d418bc2	0.047252424
225	0xbd19249c	-0.03738843
226	0x3d0b55ef	0.0340175
227	0x3d482bf3	0.04887004
228	0x3d36e459	0.044651363
229	0xbd596a9b	-0.053080183
230	0xbd271a4d	-0.040796567
231	0x3c87911d	0.016548688
232	0xbce8dba3	-0.028425043
233	0xbd579ab2	-0.052637763
234	0xbc1cb2e4	-0.009564135
235	0xbca4bc17	-0.02010922
236	0x3d434866	0.047676466
237	0x3d09dfba	0.033660628
238	0xbd88e352	-0.06683983
239	0x3d358271	0.04431385
240	0x3d179f95	0.037017424
241	0xbd5b49d4	-0.053537205
242	0xbcd1f886	-0.0256312
243	0xbd0741b0	-0.03302163
244	0xbcbe5e6d	-0.023238385
245	0x3d59532a	0.053057827
246	0x3c459796	0.012060067
247	0xbc90bcb2	-0.017668102
248	0xbc9b482c	-0.018955313
249	0xbd295587	-0.04134133
250	0xbd4abfab	-0.049499195
251	0x3d38b59d	0.045095075
252	0x3b956f38	0.0045603774
253	0xbd333a04	-0.0437565
254	0xbd4e7ec6	-0.05041387
255	0x3c826fd9	0.015922474

fc3.bias f4 [64]
0	0xbdb6428e	-0.08899413
1	0xbe06907f	-0.13141058
2	0xbe266ed2	-0.16253212
3	0xbc32866a	-0.010896305
4	0xbdc90130	-0.098146796
5	0xbdbbaa42	-0.091633335
6	0xbf7a9408	-0.9788213
7	0x3e9bc615	0.30424562
8	0xbd1d4961	-0.038400058
9	0xbd6b08bd	-0.05738138
10	0xbd9c7699	-0.07639808
11	0xbd5069fd	-0.05088233
12	0xbf538e28	-0.8263879
13	0xbd3361f8	-0.043794602
14	0xbd2b9a33	-0.041895103
15	0x3d12ebd1	0.035869423
16	0x3b53b916	0.0032306365
17	0xbdc038a0	-0.093858
18	0x3dec1703	0.11527827
19	0xbd630bf8	-0.055431336
20	0xbf1e334d	-0.6179703
21	0x3b71a9b0	0.0036874823
22	0xbc8f1d4f	-0.01747003
23	0xbcc1fe86	-0.023680937
24	0xbdb3ed07	-0.08785444
25	0x3ef9b2a6	0.4876911
26	0xbdc1d5fc	-0.094646424
27	0xbd20722e	-0.03917139
28	0xbcf1eac8	-0.029530898
29	0x3c951bcf	0.018201737
30	0xbdb6df19	-0.08929271
31	0xbcf92cf1	-0.030416938
32	0x3ec94438	0.3930986
33	0xbdc3bdf9	-0.09557719
34	0xbcec0bdd	-0.02881425
35	0xbeea2bcb	-0.45736536
36	0xbed76e03	-0.4207612
37	0xbdae3c1c	-0.08507559
38	0xbd5d9770	-0.0540995
39	0xbd3f7e63	-0.04675139
40	0xbd38c712	-0.045111723
41	0xbd34fc31	-0.04418582
42	0xbdf8de8a	-0.12151821
43	0xbdbc0118	-0.09179896
44	0xbdb0a189	-0.086245604
45	0xbd6bceb9	-0.057570193
46	0x3c687041	0.01418692
47	0xbd398a8a	-0.045298137
48	0xbd816ea7	-0.063199334
49	0xbdbfcd86	-0.09365372
50	0xbd6ddf8c	-0.05807452
51	0xbdc3ae06	-0.09554677
52	0x3dd235f8	0.102642
53	0xbd5f6eba	-0.054548956
54	0xbcb00a0f	-0.021489171
55	0xbe55fdb9	-0.20897569
56	0xbc5262a6	-0.012840902
57	0xbd1ef4f5	-0.038807828
58	0xbe45883f	-0.19290255
59	0xbd8aa1a1	-0.067691095
60	0xbca07b3c	-0.019590013
61	0xbd23200b	-0.03982548
62	0xbde61896	-0.11235158
63	0xbe0f884d	-0.14016838

fc4.weight f4 [64, 64]
0	0xbcfc65b1	-0.030810209
1	0xbd587f10	-0.05285555
2	0xbc6bfdff	-0.014403819
3	0x3ca1788f	0.019710807
4	0xbd369973	-0.044579934
5	0x3d235552	0.03987629
6	0xbd81accc	-0.063317865
7	0xbbb17fdc	-0.0054168534
8	0xbd21e174	-0.03952165
9	0xbd3f0c0e	-0.046642356
10	0xbb99822a	-0.004684706
11	0x3d6179e5	0.05504789
12	0xbdb84d96	-0.08999173
13	0xbd091cab	-0.033474606
14	0xbd1f82e7	-0.038943198
15	0xbd9e6591	-0.07734216
16	0x3c8ae1d2	0.016953383
17	0xbd3f68ed	-0.046730924
18	0x3c39729e	0.011318831
19	0xbd4db6ab	-0.050223034
20	0xbd919869	-0.07109148
21	0xbd1a0056	-0.037597977
22	0x3bb1d7cf	0.0054273377
23	0x3d10fcaa	0.03539721
24	0x3cd8e8e7	0.026478244
25	0xbc429489	-0.011876234
26	0xbc4d1e45	-0.012519424
27	0xbca142f2	-0.019685242
28	0xbcb706fd	-0.0223422
29	0x3adf5099	0.001703757
30	0x3ce2a829	0.027668076
31	0xbda4f730	-0.0805496
32	0xbd972696	-0.073804066
33	0x3c14b557	0.009076438
34	0x3bb0a764	0.0053910483
35	0xbd5c83a1	-0.05383647
36	0xbd98e84b	-0.07466181
37	0xbd083775	-0.033256013
38	0xbd1ac40d	-0.037784625
39	0xbc9071c6	-0.017632376
40	0xbc87d784	-0.016582258
41	0xbd054a43	-0.032541525
42	0x3c93527c	0.017983668
43	0xbd1adb8e	-0.03780704
44	0x3ca6a32f	0.020341484
45	0xbd6968d8	-0.056984752
46	0xbd6bae08	-0.057539016
47	0xbd696883	-0.056984436
48	0x3d0666e7	0.03281298
49	0xbc60c971	-0.013719902
50	0xbd787e44	-0.06066729
51	0xbd48bc6e	-0.049007826
52	0xbd942db0	-0.07235277
53	0x3d159043	0.03651453
54	0xbd4b4ead	-0.049635578
55	0xbd199334	-0.0374939
56	0x3d11df8f	0.035613593
57	0x3d30d3ca	0.043170728
58	0x3c8eba73	0.01742289
59	0xbc477ed0	-0.012176231
60	0x3ca118f9	0.019665228
61	0x3bd2dc07	0.0064349207
62	0xbd55d70d	-0.05220704
63	0xbd39a009	-0.045318637
64	0x3ce908e6	0.028446626
65	0x3db049e8	0.086078465
66	0x3d3c231d	0.045931924
67	0xbccc1877	-0.02491401
68	0x3d9aa535	0.07551042
69	0xbd2c71cb	-0.04210071
70	0xbef006bc	-0.46880138
71	0xbf6c4256	-0.9228872
72	0x3c6f776a	0.014615873
73	0x3ae3affe	0.0017371175
74	0xbc200a63	-0.009768101
75	0x3bb0bc66	0.0053935526
76	0x3e654821	0.22390796
77	0xbae8b244	-0.0017753323
78	0x3d5ee1b3	0.054414462
79	0xbe4816fd	-0.1954002
80	0xbd08336e	-0.033252172
81	0x3cd91af7	0.026502116
82	0xbf37fd50	-0.718709
83	0xbb630ed4	-0.003464629
84	0xbedef079	-0.4354284
85	0x3d311a2a	0.043237843
86	0x3b9f3c8b	0.004859512
87	0x3b02b95f	0.0019946916
88	0xbd23a6ea	-0.039954104
89	0x3e79deb6	0.24401364
90	0xbd08a148	-0.033356935
91	0xbc4df57b	-0.012570734
92	0x3d6147e1	0.05500019
93	0xbc9d0d38	-0.019171342
94	0x3ca3cf5f	0.019996343
95	0x3e0edd78	0.13951671
96	0x3e77ab99	0.24186553
97	0xbcd82cb3	-0.026388502
98	0xbe02f708	-0.12789547
99	0xbe943c3b	-0.28952202
100	0xbdfcb838	-0.123398244
101	0xbd1e3491	-0.03862435
102	0x3c899469	0.0167944
103	0x3d2096be	0.03920626
104	0xbd0ad666	-0.033895873
105	0xbc324e3a	-0.0108829085
106	0x3b9ff2fb	0.0048812605
107	0xbc9c3606	-0.01906873
108	0x3c6264d1	0.013817982
109	0xbcb9f56d	-0.022700036
110	0x3f84759a	1.0348389
111	0x3d517c99	0.051144216
112	0xbce3ac16	-0.027792018
113	0x3d6b7cc4	0.057492033
114	0x3b69dd53	0.0035684898
115	0xbc94b2b2	-0.018151615
116	0x3eab7f98	0.33495784
117	0x3c3efb71	0.011656628
118	0xbd1f7948	-0.038934022
119	0xbd9ceadf	-0.076619856
120	0xbd017dbd	-0.031614054
121	0x3b37ea69	0.0028063303
122	0x3df2f844	0.11863759
123	0x3d0d203e	0.034454577
124	0xbe6d48b7	-0.2317227
125	0x3dc9dcec	0.09856591
126	0x3c7659ca	0.015036056
127	0x3f351b4a	0.70744765
128	0xbbf6c82a	-0.0075311856
129	0xbd032f91	-0.032027785
130	0x3a942b58	0.0011304421
131	0x3ab2d36f	0.0013643334
132	0xbc837064	-0.016044803
133	0xbc2dfcfe	-0.0106194
134	0x3ca766de	0.020434793
135	0xbbf440d2	-0.0074540162
136	0xbc69bd2c	-0.0142662935
137	0x3d3b758e	0.045766406
138	0xbd0ff4bb	-0.035145503
139	0xbc6ba749	-0.014383146
140	0xbd7b3d1f	-0.061337586
141	0xbd46bef0	-0.048521936
142	0x3cfa7140	0.03057158
143	0x3c9e0daf	0.019293634
144	0xbd243c52	-0.04009659
145	0x3d1d4644	0.03839709
146	0xbd04be5c	-0.032408103
147	0xbc20c29a	-0.009812022
148	0x3c06052a	0.008179942
149	0xbd8ee13f	-0.06976556
150	0xbc903cc6	-0.017607104
151	0x3ce19823	0.027538365
152	0x3c627271	0.01382123
153	0x3ac2177b	0.0014808023
154	0xbcaa9e3f	-0.02082741
155	0x3c7fa402	0.015603067
156	0x3cf9269f	0.030413924
157	0x3d17a659	0.037023876
158	0xbba09dff	-0.004901647
159	0xbd5d3573	-0.05400605
160	0x3b86d5b3	0.0041148304
161	0x3d3334ca	0.043751515
162	0x3cd21b8d	0.025647903
163	0x3c87c31f	0.016572533
164	0xbdbbdf79	-0.091734834
165	0x3d5ae3f9	0.053440068
166	0x3d43a985	0.04776909
167	0x3acb5383	0.0015512559
168	0xbcbf4b6d	-0.023351396
169	0x3d46121b	0.04835711
170	0xbd4ba3d1	-0.049716774
171	0xbc79bfc8	-0.015243478
172	0xbc46e48f	-0.012139454
173	0xbd10f15f	-0.03538644
174	0xbc361cb1	-0.011115239
175	0xbcbf6f11	-0.02336839
176	0x3acc1d6d	0.0015572734
177	0x3d489d81	0.048978332
178	0xbd27122a	-0.040788807
179	0x3bf8e446	0.0075955717
180	0x3ca2024e	0.01977649
181	0x3d4b26b5	0.04959746
182	0xbb60d260	-0.003430508
183	0x3bd4cdac	0.0064942446
184	0x3cc48b17	0.023992104
185	0xbd471cae	-0.048611335
186	0x3d1dfc33	0.038570594
187	0x3c1eb34e	0.009686304
188	0xbb6e735d	-0.003638468
189	0x3ce93165	0.028465936
190	0x3b845f7c	0.004039703
191	0x3cf74182	0.030182604
192	0x3d8a43ff	0.067512505
193	0x3d18d03e	0.03730797
194	0x3d9aaf0d	0.075529195
195	0x3d3e37ea	0.046440043
196	0xbc102c77	-0.008799664
197	0xbc8ceb98	-0.017202184
198	0xbf199b5d	-0.6000269
199	0x3e705711	0.23470713
200	0x3bda2fab	0.0066585145
201	0x3cdfb61f	0.027308522
202	0xbcb96d98	-0.022635266
203	0x3d9a1cf3	0.07525053
204	0xbf9f22b4	-1.2432466
205	0xbd31d1ca	-0.04341296
206	0xbdb635bd	-0.088969685
207	0xbca0df05	-0.019637594
208	0x3edd7216	0.43251103
209	0xbd1dda17	-0.038538065
210	0xbebb0a27	-0.36531183
211	0xbd16468a	-0.036688365
212	0xbdbcdaf6	-0.09221451
213	0x3d9f1386	0.07767396
214	0xbc4ec581	-0.012620331
215	0x3d2f5c3b	0.042812567
216	0xbd0ec38c	-0.034854457
217	0xbe4a5225	-0.19757898
218	0xbc91374c	-0.017726563
219	0x3c8a4913	0.016880548
220	0x3cb8e760	0.022571266
221	0x3cd491ae	0.025948372
222	0x3c8eef20	0.017448008
223	0x3eb8dbc2	0.36105162
224	0xbd09be80	-0.03362894
225	0x3d1c35ac	0.038137123
226	0xbd0f5239	-0.034990523
227	0x3c9c05c8	0.019045725
228	0xbf915592	-1.1354239
229	0xbdd05efd	-0.101743676
230	0xbd8d889f	-0.06910824
231	0x3d5e8ff9	0.05433652
232	0x3d3ae296	0.045626245
233	0x3d956df1	0.0729636
234	0xbd4dd0a3	-0.0502478
235	0x3b8c7049	0.0042858464
236	0x3d32e9f1	0.043680135
237	0xbddcbabb	-0.107778035
238	0xbef8765a	-0.48527795
239	0x3cecae67	0.028891755
240	0x3a362ca3	0.00069494004
241	0x3d2da1d3	0.042390656
242	0x3db3cfdf	0.08779883
243	0xbc28b61e	-0.010297326
244	0xbd2f0a0e	-0.0427342
245	0x3d631ace	0.055445485
246	0x3d45b024	0.048263684
247	0xbf3cb572	-0.73714364
248	0xbd01dc26	-0.03170409
249	0x3bc6fcbc	0.0060726088
250	0x3db76ace	0.08955918
251	0xbd1e107e	-0.038589947
252	0xbea92706	-0.33037585
253	0x3d10fc2b	0.035396736
254	0xbd14b3b7	-0.036304202
255	0x3c6c2cbc	0.014414962

fc4.bias f4 [64]
0	0xbc97e467	-0.018541528
1	0xbe0cedd2	-0.13762596
2	0xbd87e044	-0.06634572
3	0x3ead4eb6	0.33849114
4	0xbd637665	-0.05553283
5	0x3e73e5bc	0.23818105
6	0x3e753cb0	0.23948932
7	0xbd5fe763	-0.054664027
8	0x3f096eaf	0.53684515
9	0xbd06209c	-0.032745942
10	0xbd3927fd	-0.04520415
11	0xbdce6e26	-0.10079603
12	0x3e7c6ac7	0.24650107
13	0xbc63e244	-0.013908926
14	0xbd3a7c1c	-0.045528516
15	0xbdc20fe6	-0.09475689
16	0xbd70cd66	-0.058789633
17	0xbd595150	-0.05305606
18	0xbd75b55f	-0.059987422
19	0x3f001740	0.50035477
20	0x3ebc242d	0.3674635
21	0x3e9189ad	0.2842535
22	0x3e7c2972	0.24625185
23	0xbdb620a9	-0.08892948
24	0xbd89010f	-0.06689655
25	0xbe31ebd6	-0.1737512
26	0xbda1db53	-0.07903161
27	0xbc96cf37	-0.018409355
28	0xbd85bacf	-0.065297715
29	0xbdf27c8f	-0.11840164
30	0xbf370c3f	-0.7150306
31	0x3e07b258	0.13251626
32	0x3e85557c	0.26041782
33	0x3ea094bd	0.31363478
34	0xbd8c4831	-0.06849707
35	0xbee002f4	-0.43752253
36	0xbdebb4aa	-0.11509068
37	0xbd1b61d1	-0.037935082
38	0xbddbadf9	-0.10726542
39	0xbdc5765e	-0.096417174
40	0xbd989c6f	-0.07451712
41	0xbdc5fe44	-0.09667638
42	0xbd04c2a0	-0.03241217
43	0xbe06f666	-0.13179931
44	0xbcd417f7	-0.025890334
45	0x3d95bfc6	0.073119685
46	0xbc883849	-0.016628401
47	0xbdb345ca	-0.087535456
48	0xbd48876d	-0.048957277
49	0x3b015f6b	0.0019740711
50	0xbd83269a	-0.06403847
51	0xbdfbb4fe	-0.12290381
52	0xbd9c3d73	-0.07628908
53	0x3e6ba8a0	0.23013544
54	0xbe002074	-0.1251238
55	0xbdb7eb53	-0.089804314
56	0xbe193ea3	-0.149653
57	0xbd8aafe9	-0.067718334
58	0xbd3d8905	-0.04627325
59	0xbe99c4ed	-0.30033055
60	0xbe1f4805	-0.15554817
61	0xbde9aac3	-0.11409523
62	0xbda7b583	-0.081889175
63	0xbdf1bf8e	-0.11804114

fc5.weight f4 [64, 64]
0	0x3d0ae3cb	0.033908647
1	0xbda868d9	-0.08223123
2	0x3c34bf6e	0.0110319685
3	0xbd603ef7	-0.054747548
4	0x3d0ac1d2	0.033876248
5	0x3ba1b1aa	0.0049345093
6	0x3ab04de0	0.0013450943
7	0xbbbb035e	-0.0057071885
8	0xbc09e821	-0.00841716
9	0x3d48e1fa	0.049043633
10	0xbd04041b	-0.032230478
11	0x3d1293b2	0.035785384
12	0xbd263ada	-0.04058347
13	0x3c9720ae	0.0184482
14	0x3ce6d7a7	0.028179003
15	0xbd1d088f	-0.03833824
16	0x3cc006e6	0.02344079
17	0xb81cdd19	-3.739921e-05
18	0xbd498b4e	-0.049205117
19	0x3b5b2e2e	0.0033444273
20	0xba0655c1	-0.00051244727
21	0xbce7102d	-0.028205955
22	0xbd0c62ba	-0.03427384
23	0xbc55ba56	-0.013044914
24	0x3d627633	0.055288505
25	0x3cdcf83e	0.02697384
26	0xbcfbd272	-0.030739997
27	0xbd7348d1	-0.059395615
28	0x3d10db40	0.035365343
29	0x3d07fd2e	0.033200435
30	0x3b8ee02d	0.00436022
31	0xbbccc897	-0.006249498
32	0xbce81de3	-0.028334564
33	0x3a88f1d6	0.0010448049
34	0xbc658d88	-0.014010794
35	0x3cd49c54	0.02595345
36	0xbbdce3ed	-0.006741038
37	0xbcfd660a	-0.030932445
38	0xbd1cbfa9	-0.03826872
39	0x3c806a0c	0.015675567
40	0xbcea9d00	-0.028639317
41	0xbd25b650	-0.04045707
42	0xbb353cfb	-0.0027654755
43	0x3bb3e59e	0.005490019
44	0x3c90a935	0.01765881
45	0x3c6aeb25	0.014338289
46	0x3d15fad4	0.03661616
47	0xbc8c0267	-0.01709099
48	0x3bbdec56	0.0057959957
49	0xbc212419	-0.0098352665
50	0x3c24cfe9	0.010059335
51	0x3ce962ef	0.028489558
52	0xbd21926c	-0.03944628
53	0x3c000e80	0.007815957
54	0x3c12c27d	0.008957502
55	0xbca8ff69	-0.020629602
56	0x3cc56a62	0.024098579
57	0xbcfc2909	-0.030781286
58	0x3d05b3f9	0.03264234
59	0x3bfaf2d3	0.0076583414
60	0x3cb3b920	0.02193886
61	0xbc9c4432	-0.019075487
62	0xbd0dda18	-0.03463182
63	0xbd5efe87	-0.054441955
64	0xbd20dd3a	-0.039273478
65	0x3c5a5d8f	0.01332797
66	0xbcf590e4	-0.029976316
67	0x3cf15602	0.029459957
68	0x3d32739d	0.04356729
69	0xbc7609bc	-0.015016969
70	0xbd8fd35a	-0.07022734
71	0x3d52ad1c	0.05143462
72	0xbd2e1c99	-0.04250774
73	0xbcc72a11	-0.024312051
74	0xbd0c9ae5	-0.034327406
75	0x3d4024a1	0.046909932
76	0xbcfcaf0a	-0.030845184
77	0x3cfe50cd	0.031044388
78	0x3d20db26	0.039271496
79	0xbc48e08d	-0.012260568
80	0x3cec775d	0.02886551
81	0xbcce381c	-0.02517324
82	0xbcbe783b	-0.02325069
83	0x3d39b59e	0.04533922
84	0x3ccb2638	0.024798498
85	0xbd0971d7	-0.03355583
86	0xbce3a69a	-0.027789403
87	0x3d27dbaa	0.040980972
88	0x3c2bb7e7	0.010480857
89	0xbd5f415e	-0.0545057
90	0x3d3a97d5	0.045554955
91	0xbd3c5fae	-0.045989685
92	0x3d0f5c0d	0.034999896
93	0xbd0ff974	-0.035150006
94	0xbcb3f262	-0.021966163
95	0xbc470a55	-0.012148459
96	0xbc02a094	-0.007972855
97	0xbd8d1276	-0.06888287
98	0xbc7fbeea	-0.015609482
99	0xbd6ea63b	-0.058264
100	0xbd61f67a	-0.0551667
101	0x3d2e40e9	0.042542372
102	0xbd21db86	-0.039515994
103	0x3d094f2e	0.033522777
104	0xbc85413f	-0.016266463
105	0x3d1c2171	0.03811783
106	0xbd15a3dc	-0.03653322
107	0xbd403bb9	-0.046931956
108	0xbd2001b0	-0.03906411
109	0xbde043bd	-0.1095042
110	0x3d047cec	0.032345697
111	0xbd5c41cc	-0.053773686
112	0xbd721154	-0.059098557
113	0x3d21ef28	0.039534718
114	0xbd301e9e	-0.04299795
115	0x3d31bc39	0.043392394
116	0xbcd7b80a	-0.026332874
117	0xbd6a26fd	-0.05716609
118	0xbc86c18d	-0.016449714
119	0xbd5d5161	-0.054032687
120	0x3c339bc6	0.010962432
121	0xbb5be79a	-0.0033554793
122	0xbd406362	-0.04696978
123	0xbd00ef60	-0.031478286
124	0xbb53af86	-0.0032300665
125	0xbd124fbe	-0.03572058
126	0x3b885742	0.0041607926
127	0xbbc452d1	-0.005991318
128	0xbcca6050	-0.024704129
129	0x3bc25cfa	0.005931494
130	0xbd55918b	-0.052140754
131	0x3bf1bd0e	0.0073772734
132	0x3b88f842	0.0041799853
133	0xbdb4baf6	-0.088247225
134	0xbd9d5fb7	-0.07684272
135	0xbd55e667	-0.052221682
136	0x390b05f7	0.00013258295
137	0x3c88dcf3	0.01670692
138	0xbbe7c30c	-0.007072812
139	0xbcd028c7	-0.02541007
140	0xbb7f20f7	-0.003892956
141	0xbcc45ad7	-0.023969097
142	0x3cdbe05f	0.026840387
143	0xbc92c595	-0.01791648
144	0x3d125356	0.035724007
145	0x3c91493e	0.01773512
146	0xbb524ce0	-0.0032089278
147	0xbc1ba802	-0.009500505
148	0xbd0384c2	-0.03210903
149	0xbc176f0f	-0.009242787
150	0x3ce24608	0.027621284
151	0x3b1aaff3	0.002360341
152	0x3a138f5d	0.0005628968
153	0x3b0dd5a9	0.0021642244
154	0x3d3204ec	0.043461725
155	0x3b980c09	0.0046401066
156	0xbd00eebf	-0.031477686
157	0xbd1de66e	-0.038549833
158	0x3b1a7543	0.0023568429
159	0xbd0293f5	-0.031879384
160	0xbd9782b9	-0.0739798
161	0xbd6fd72a	-0.058554806
162	0x3cef7a34	0.029233076
163	0xbbd4d333	-0.0064949035
164	0xbc864c1d	-0.016393716
165	0x3d1a2e7f	0.037642
166	0xbd0af8be	-0.033928625
167	0x3bdf0ae8	0.00680672
168	0x3c05aa46	0.008158272
169	0x3d608211	0.05481154
170	0x3d0acc49	0.033886228
171	0xbd2936bd	-0.041311968
172	0xbbb456f8	-0.0055035315
173	0xbd66a840	-0.0563128
174	0xbd3c37d6	-0.045951687
175	0xbd75036c	-0.059817716
176	0xbd8d1127	-0.06888037
177	0xbc4a3259	-0.012341105
178	0x3c0ee746	0.008722132
179	0x3d152028	0.03640762
180	0xbd2ef449	-0.042713437
181	0x3d0c988d	0.03432517
182	0x3d29b871	0.041435663
183	0xbd708e77	-0.058729615
184	0xbd0bb829	-0.034111176
185	0x3d28df4b	0.041228574
186	0xbd67063b	-0.056402426
187	0x3c4d4d06	0.012530571
188	0xbce94e53	-0.02847973
189	0xbd0895cd	-0.033345986
190	0x3bd70dc6	0.006562921
191	0xbd4ffbca	-0.050777234
192	0xbcc8f54d	-0.024531031
193	0xbdeaab8b	-0.114585005
194	0xbb8c1e24	-0.004276054
195	0xbd8c86a2	-0.06861617
196	0xbd2a1b90	-0.041530192
197	0xbd251ca2	-0.04031051
198	0xbd4f4bae	-0.050609283
199	0x3c80a0cc	0.015701674
200	0xbd26546e	-0.040607862
201	0x3d2a6cfd	0.041607846
202	0x3bd039d4	0.00635455
203	0xbd44affc	-0.048019394
204	0xbcbd63c8	-0.023118868
205	0x3d431296	0.047625147
206	0x3cdef6c1	0.02721727
207	0xbd5a15e4	-0.053243533
208	0xbd460f97	-0.04835471
209	0x3cbbe8b5	0.022938112
210	0x3c9c1613	0.019053495
211	0xbd5298f6	-0.051415406
212	0xbddefafa	-0.10887714
213	0xbd8c4dc8	-0.06850773
214	0xbd596ebc	-0.05308412
215	0xbd779666	-0.060446166
216	0xbce86ffb	-0.028373709
217	0x3d122989	0.035684142
218	0xbcdd5b2b	-0.027021011
219	0xbd2a7211	-0.04161269
220	0x3d607e0e	0.054807715
221	0x3b4582a8	0.0030137692
222	0xbdb7372d	-0.08946071
223	0xbdb4d93d	-0.088304974
224	0xbdcbe147	-0.099550776
225	0xbd2d8d10	-0.042370856
226	0xbc352007	-0.011054999
227	0xbd9b9116	-0.07596032
228	0x3cb5065a	0.022097755
229	0xbce1eed4	-0.027579702
230	0x3cbc2ee1	0.022971572
231	0xbc415475	-0.011799921
232	0xbab47d32	-0.0013770221
233	0xbc9f3b0d	-0.019437337
234	0xbc8ec24c	-0.017426632
235	0xbd4a6ddc	-0.049421176
236	0x3be895c5	0.007097932
237	0xbdaad2d2	-0.08340992
238	0xbcca754a	-0.02471413
239	0xbe032f7a	-0.1281108
240	0xbc80f91d	-0.015743786
241	0xbd880416	-0.06641404
242	0x3bab05aa	0.005219181
243	0x3ba6a673	0.0050857603
244	0x3d41b192	0.047288485
245	0xbd18be4b	-0.037290853
246	0xbc833efd	-0.016021246
247	0xbd29df23	-0.041472565
248	0xbc5a63da	-0.0133294705
249	0x3d099187	0.03358605
250	0x3c201c1e	0.009772329
251	0xbcd36cda	-0.02580874
252	0xbd250055	-0.04028352
253	0x3d5c407c	0.053772435
254	0xbccd0315	-0.025025884
255	0xbd29f491	-0.041493002

fc5.bias f4 [64]
0	0xbd44e2c3	-0.04806782
1	0xbda9ebc6	-0.08296923
2	0xbe0b08f2	-0.13577631
3	0xbdc8f5b9	-0.09812493
4	0xbde52b22	-0.111898676
5	0xbd8eb911	-0.06968892
6	0xbe7e3075	-0.24823172
7	0xbe8e7fc7	-0.2783186
8	0xbd102760	-0.0351938
9	0xbdb5659a	-0.088572696
10	0x3dd9ad80	0.106287956
11	0xbf5118aa	-0.8167826
12	0x3e610bc5	0.21977146
13	0xbdee10ae	-0.11624275
14	0x3c789e38	0.015174441
15	0x3ee21673	0.44157752
16	0xbdf498e1	-0.11943222
17	0xbbe78fa1	-0.0070666824
18	0xbdcd736d	-0.10031781
19	0xbea3fd2e	-0.32029098
20	0xbdae56b6	-0.085126325
21	0xbd95028b	-0.07275876
22	0x3e8da910	0.27668047
23	0xbda6564e	-0.0812193
24	0x3ea18a26	0.3155071
25	0xbdf1d898	-0.1180889
26	0xbd18fbe5	-0.0373496
27	0xbe155f7d	-0.14587207
28	0xbd93c11a	-0.072145656
29	0x3e3e8821	0.18606617
30	0xbde59be5	-0.11211375
31	0xbc6799b1	-0.014135764
32	0xbd7fbbd0	-0.06243497
33	0xbdbc5812	-0.091964856
34	0xbd5dcea7	-0.054152157
35	0xbdf70d0e	-0.12063037
36	0xbeb71bbf	-0.35763356
37	0xbde352ea	-0.11099799
38	0xbd9d73cd	-0.07688103
39	0xbda4b0ea	-0.08041556
40	0xbe219b68	-0.15781939
41	0xbdffbdae	-0.124873504
42	0xbdcdeed5	-0.10055319
43	0xbd8c1d3b	-0.06841513
44	0xbdcd0439	-0.10010571
45	0xbd2ec826	-0.042671345
46	0xbd84a6f1	-0.06477154
47	0xbe27dcd7	-0.16392837
48	0xbd90ba51	-0.07066787
49	0xbe3046df	-0.17214535
50	0xbdb92024	-0.090393335
51	0xbdb40b83	-0.08791258
52	0xbeba38c3	-0.3637143
53	0x3e3e2cc1	0.1857176
54	0x3eac2107	0.33618948
55	0xbcd8bc3f	-0.02645695
56	0xbdcd66aa	-0.10029347
57	0xbde32973	-0.1109189
58	0xbca13302	-0.019677643
59	0xbde773a7	-0.11301356
60	0xbded800c	-0.11596689
61	0xbd950772	-0.07276811
62	0x3c580160	0.013183922
63	0xbd85042a	-0.06494935

fc6.weight f4 [3, 64]
0	0x3cc1eea2	0.02367336
1	0x3d8cc6f7	0.06873887
2	0x3bd9f869	0.0066519273
3	0xbcced6d3	-0.02524892
4	0xbc5f0530	-0.013612077
5	0x3db2e02b	0.08734163
6	0xbdae82c9	-0.08521039
7	0xbd133be4	-0.035945788
8	0xbc0ef838	-0.008726172
9	0x3d90e553	0.0707499
10	0x3dec6b94	0.115439564
11	0xbd08a258	-0.033357948
12	0x3ce72659	0.028216528
13	0xb9b1cbb2	-0.00033911836
14	0xbc0f4bc1	-0.0087460885
15	0x3e6fe7cd	0.23428269
16	0x3b9d1b08	0.004794482
17	0x3cb1bc8f	0.021696357
18	0xbcbf4ad9	-0.02335112
19	0xbcd8815d	-0.026428873
20	0x3a97e450	0.0011588428
21	0xbdcb9d34	-0.099420935
22	0xbceda3bb	-0.029008737
23	0x3d87286f	0.06599509
24	0x3e018e88	0.12652028
25	0xbcae6cb0	-0.02129206
26	0xbb90d055	-0.0044193664
27	0xbdbf3788	-0.093367636
28	0x3d0d19ef	0.03444856
29	0xbd124092	-0.03570611
30	0xbc5c29ee	-0.013437731
31	0x3d847dd5	0.06469313
32	0x3c079d4f	0.008277251
33	0x3beeb2e8	0.007284511
34	0xbd3f9742	-0.04677511
35	0xbd257394	-0.040393427
36	0xbd6231f0	-0.055223405
37	0xbda83f34	-0.0821518
38	0xbc81f4cb	-0.015863797
39	0xbcb2aa83	-0.021809822
40	0xbd81e2d9	-0.06342096
41	0x3db4289f	0.0879681
42	0xbd65c51b	-0.056096178
43	0xbdaec568	-0.08533746
44	0xbdb3c6ae	-0.087781295
45	0xbc70de1c	-0.0147013925
46	0xbbbbb8af	-0.005728803
47	0x3ddf20fe	0.10894965
48	0x3d36cd6b	0.044629496
49	0x3d3c90a3	0.046036374
50	0x3d1960b8	0.037445754
51	0x3cb1d7f3	0.021709418
52	0xbd787fac	-0.060668632
53	0x3d76615a	0.060151435
54	0xbd12f025	-0.03587355
55	0x3d1402db	0.036135536
56	0x3de25503	0.11051371
57	0x3c2a0632	0.010377454
58	0x3be21533	0.0068995
59	0xbd455989	-0.04818109
60	0xbc8d5977	-0.017254574
61	0x3c653e83	0.013991955
62	0xbc4ff54e	-0.012692763
63	0x3d859e7e	0.065243706
64	0xbc855bc5	-0.01627911
65	0x3cd3f0e0	0.025871694
66	0xbc155fbd	-0.009117064
67	0x3c991983	0.018688923
68	0x3b676e7d	0.003531366
69	0x3dc246c9	0.094861574
70	0xbd40b6c0	-0.047049284
71	0xbe00cdbd	-0.12578483
72	0x3d723158	0.05912909
73	0x3d0c451a	0.034245588
74	0xbdca5be5	-0.09880809
75	0x3e7aabf1	0.24479653
76	0x3cacfd76	0.021116953
77	0xbd3f74a4	-0.046742097
78	0xbcff8040	-0.031189084
79	0x3ddaf29d	0.10690806
80	0x3d6cf5ea	0.05785171
81	0xbc95bf47	-0.018279685
82	0x3b76f312	0.0037681502
83	0xbae2cda7	-0.0017303721
84	0xbccd0d47	-0.025030745
85	0xbc906354	-0.017625488
86	0x3e0f2d60	0.13982153
87	0x3d95e2b2	0.07318629
88	0x3c9ae8b5	0.018909791
89	0xbd0ff635	-0.03514691
90	0xbbbff4d7	-0.0058580446
91	0x3ba81309	0.0051292223
92	0xbdc1979b	-0.094527446
93	0xbd857118	-0.065157115
94	0xbd3e527b	-0.04646538
95	0x3ca1e78b	0.019763729
96	0x3d8c5841	0.068527706
97	0x3b1cd296	0.002392923
98	0x3d2ae085	0.041718025
99	0xbce24544	-0.027620919
100	0xbca3db76	-0.020002108
101	0x3d190f11	0.037367884
102	0xbcbc847c	-0.023012392
103	0xbc471ff3	-0.012153613
104	0x3d7ec0b8	0.06219551
105	0x3db1b169	0.086764164
106	0x3d1ca418	0.03824243
107	0x3b582486	0.0032980754
108	0xbcaf00f2	-0.021362755
109	0xbd1ef41c	-0.03880702
110	0xbc3ed618	-0.011647724
111	0x3c4b2029	0.012397804
112	0xbc993ca7	-0.01870568
113	0xbc9ac4fd	-0.01889276
114	0x3cdf768d	0.02727821
115	0xbcf0edf0	-0.029410332
116	0x3cc4c2bd	0.02401864
117	0x3e1b46fa	0.15163794
118	0x3e46ae05	0.1940232
119	0x3cca0285	0.024659405
120	0x3d1d213f	0.038361784
121	0xbd1558f6	-0.036461793
122	0xbb06dbde	-0.0020577828
123	0xbd691a5d	-0.056909908
124	0xbc7158be	-0.01473063
125	0x3cd68223	0.0261851
126	0x3d0e9bfd	0.03481673
127	0xbd379c49	-0.04482678
128	0xbcbde608	-0.023180977
129	0x3c5b2bcb	0.01337714
130	0xbc53ac5d	-0.012919513
131	0x3cb40270	0.021973819
132	0xbcffe6c1	-0.031237962
133	0x3c82c670	0.015963763
134	0x3ca18bfe	0.019720074
135	0xbe12c744	-0.14333826
136	0x3c663dac	0.01405279
137	0x3cfa6bb9	0.030568944
138	0xbd1b376f	-0.037894662
139	0x3e251b60	0.16123724
140	0xbe42a72f	-0.19009088
141	0x3cc24425	0.023714134
142	0x3c2b6a8f	0.010462417
143	0xbd040be3	-0.0322379
144	0x3d461987	0.04836419
145	0x3a222801	0.00061857706
146	0x3d180754	0.037116364
147	0xbd0731cb	-0.03300647
148	0xbc979f48	-0.018508568
149	0x3d7cfc06	0.061763786
150	0xbd181a1d	-0.03713428
151	0xbdec45fc	-0.11536786
152	0x3e847325	0.25869098
153	0xbc8fe4dd	-0.017565185
154	0xbd4feb33	-0.050761413
155	0x3d48468b	0.0488954
156	0x3c33b6c7	0.0109688705
157	0x3d2d4022	0.04229749
158	0xbd4b0a6f	-0.049570497
159	0x3c27e8a2	0.010248335
160	0xbd417271	-0.04722828
161	0xbc4a45ac	-0.012345713
162	0x3d4ffb58	0.05077681
163	0xbcb2197a	-0.021740664
164	0x3d608a30	0.054819286
165	0xbda6e405	-0.0814896
166	0xb9f20f5c	-0.0004616928
167	0xbd86dc51	-0.06584991
168	0x3d1c1384	0.03810455
169	0x3bd2da73	0.0064347326
170	0x3b4665f2	0.0030273166
171	0x3ded8de0	0.11599326
172	0xbd128c6a	-0.03577844
173	0xbd3b61d2	-0.045747586
174	0xbdc7eec4	-0.09762338
175	0x3cfeb562	0.03109235
176	0x3d8ecad2	0.06972279
177	0xbd737f4d	-0.059447575
178	0x3ac89b2d	0.0015305035
179	0x3d305378	0.043048352
180	0x3d9b3d3b	0.07580038
181	0xbd3285fd	-0.043584812
182	0x3e2263f7	0.15858446
183	0x3dd124d3	0.10212102
184	0x3db1d93a	0.08684011
185	0x3d34c6d2	0.044134922
186	0x3c78398a	0.015150437
187	0x3bdb96ec	0.006701341
188	0xbcc690f8	-0.024239048
189	0xbbf8d93e	-0.0075942567
190	0xbd1104ce	-0.035404973
191	0xbd9d7881	-0.07689

fc6.bias f4 [3]
0	0x3e520966	0.20511398
1	0x3e657266	0.22406921
2	0x3e85194f	0.2599587
